soil_classifier_final.pth (torch, 135057 bytes, 8 tensors)

conv1.weight f4 [16, 3, 5, 5]
-0.12403959 -0.041809924 -0.11506015 -0.0336483 -0.10614393 -0.124049485 -0.112318575 -0.07491101
-0.12683207 -0.048269175 -0.16471913 -0.16527268 -0.16949625 -0.10748124 -0.022910973 0.03251734
-0.04526668 -0.16261615 0.07520115 -0.08023165 -0.06496571 -0.007938848 -0.06490907 -0.00090949907
-0.03792825 -0.04396469 -0.1517621 -0.028776394 -0.0054878173 0.06503087 -0.051914513 -0.0006688257
-0.051932067 0.03054482 -0.041779842 -0.026225884 -0.064227425 -0.13930115 0.093351364 0.07369303
0.026104568 -0.13316992 0.067063525 0.100699626 0.0044151866 -0.013757634 0.07446411 -0.10910241
0.11076475 -0.022124197 -0.082722925 -0.028135119 0.01049071 -5.3269578e-05 0.07418319 -0.13504034
-0.067269556 -0.053505383 -0.09844847 -0.08194496 -0.072615154 -0.09460048 -0.032725103 -0.06329954
0.107330635 0.020916736 -0.08343231 -0.045428917 -0.099201605 0.07014127 -0.049764335 0.077649705
0.05955104 -0.031128325 0.028973369 -0.034806494 -0.11429172 -0.08535839 -0.08229775 0.09773186
-0.095560126 0.025709754 -0.06169887 0.015274521 0.07586724 0.071760885 -0.13714173 -0.0008665471
0.016521614 -0.012585403 -0.017746165 0.0943717 -0.11430836 0.01606549 0.03688847 0.08011947
0.05083129 -0.046125386 -0.027140832 -0.10747376 0.054274607 0.055648785 0.15393503 0.14049132
-0.03536438 0.15678778 -0.06503676 0.07577003 0.09254132 0.11421029 0.14165674 -0.0094726505
0.15399633 0.059910234 0.035992727 -0.0027312385 -0.058110546 0.0060997526 0.051604457 0.08803536
0.026560217 0.04572675 0.06371264 -0.019002978 0.03380875 -0.12915693 -0.026521463 0.07699318
-0.098737575 0.03416185 -0.068389244 -0.08985073 0.02077023 -0.15977943 0.042874135 0.050773673
-0.015990298 -0.026704047 -0.087102994 -0.12097515 0.060454585 0.01836207 0.020959344 -0.09411361
0.0664471 -0.10770875 0.059257682 0.070031926 -0.13573836 -0.14258824 -0.115751386 -0.06496677
0.026759136 -0.10584985 0.10011393 -0.095407225 -0.04872809 0.02164792 -0.062167387 0.005268899
-0.11905515 -0.113505036 0.011435216 -0.037875038 0.09735994 -0.078169614 0.057627615 0.088311285
-0.02039241 -0.013340119 0.030251114 -0.06339739 0.03806349 -0.02775395 -0.021440327 -0.111216925
0.07599538 -0.11136311 -0.02946762 0.04493617 -0.1073958 -0.008515722 0.10004157 0.03131711
0.08559136 -0.11141652 0.044409167 0.0039322637 0.017199105 -0.03187061 -0.042419374 0.05865449
0.069176175 -0.08471099 0.102644056 0.09909525 -0.045874212 0.016143385 0.06432275 -0.11011
0.022844296 0.08382078 -0.045159314 -0.104316555 -0.07501686 0.04709049 -0.025728527 -0.018349487
0.01509377 0.04371922 0.04397502 -0.0108878175 -0.114831865 0.0784121 0.0817493 -0.008706713
-0.07653337 -0.0276378 0.05579869 0.08840976 -0.11315653 0.0138550885 0.010920469 0.027435435
-0.026906043 -0.011958995 -0.11315968 -0.011092274 -0.08758992 0.107313715 0.04694053 0.038012624
-0.057216704 -0.03983063 0.02101943 -0.004108204 0.0046337773 0.011854598 -0.0041914186 -0.08992331
0.12757102 -0.022515878 0.014686392 -0.06986285 0.10021961 -0.025919534 0.075501986 0.052823856
-0.023117302 0.029756123 -0.11189397 -0.13008875 0.03541743 0.057177708 -0.110980816 -0.061902426
00000000: 7808 febd e240 2bbd a8a4 ebbd cdd2 09bd
00000010: fd61 d9bd a80d febd 4807 e6bd f26a 99bd
00000020: 44e0 01be e6b5 45bd 22ac 28be 3e3d 29be
00000030: 6d90 2dbe 201f dcbd cbaf bbbc e730 053d
00000040: 8e69 39bd d984 26be 0f03 9a3d 7e50 a4bd
00000050: be0c 85bd f111 02bc 0cef 84bd 736b 6eba
00000060: a75a 1bbd 5214 34bd 8667 1bbe 79bc ebbc
00000070: 26d3 b3bb e82e 853d 50a4 54bd 2254 2fba
00000080: b8b6 54bd 2139 fa3c 5721 2bbd aad7 d6bc
00000090: ab89 83bd f6a4 0ebe 002f bf3d 5fec 963d
000000a0: 3fd9 d53c b25d 08be 9a58 893d 9b3b ce3d
000000b0: 45ad 903b b367 61bc a480 983d 1671 dfbd
000000c0: a1d8 e23d ce3d b5bc a36a a9bd 9f7b e6bc
000000d0: 3ae1 2b3c c66d 5fb8 5bed 973d 0448 0abe
000000e0: 9fc4 89bd 7628 5bbd 5a9f c9bd c2d2 a7bd
000000f0: 41b7 94bd e5bd c1bd c20a 06bd 30a3 81bd
00000100: 2ad0 db3d 9359 ab3c 8fde aabd ac13 3abd
00000110: 362a cbbd 3aa6 8f3d b0d5 4bbd cf06 9f3d
00000120: cbeb 733d d400 ffbc 8f59 ed3c 4191 0ebd
00000130: c711 eabd 61d0 aebd b98b a8bd a427 c83d
00000140: 07b5 c3bd 439d d23c f4b7 7cbd fc41 7a3c
00000150: 4960 9b3d 5ff7 923d e26e 0cbe fe28 63ba
00000160: 5658 873c 0233 4ebc 6860 91bc f345 c13d
00000170: 801a eabd c69b 833c 5d18 173d ad15 a43d
00000180: 7934 503d f9ed 3cbd 7356 debc 341b dcbd
00000190: 0d4f 5e3d fbef 633d 25a1 1d3e f5dc 0f3e
000001a0: 3dda 10bd fa8c 203e fe31 85bd 512d 9b3d
000001b0: 4e86 bd3d 16e7 e93d 770e 113e 2d33 1bbc
000001c0: 37b1 1d3e 6f64 753d 1c6d 133d 94fe 32bb
000001d0: 5305 6ebd 6fe0 c73b 325f 533d e24b b43d
000001e0: d094 d93c f94b 3b3d c67b 823d 22ac 9bbc
000001f0: 0b7b 0a3d b741 04be 8a43 d9bc 9aae 9d3d
00000200: ed36 cabd 4ced 0b3d a90f 8cbd a903 b8bd
00000210: 5426 aa3c 389d 23be ca9c 2f3d 0ef8 4f3d
00000220: 16fe 82bc 72c2 dabc 0e63 b2bd d2c1 f7bd
00000230: 3a9f 773d 0d6c 963c eeb2 ab3c a3be c0bd
00000240: 6b15 883d 6896 dcbd 2fb8 723d e66c 8f3d
00000250: fffe 0abe a702 12be 100f edbd 4c0d 85bd
00000260: fa35 db3c cec7 d8bd 8808 cd3d dd64 c3bd
00000270: 1b97 47bd fb56 b13c 3ba3 7ebd baa6 ac3b
00000280: 30d3 f3bd 5475 e8bd c65a 3b3c db22 1bbd
00000290: a664 c73d 6417 a0bd ef0a 6c3d 8cdc b43d
000002a0: fc0d a7bc 8490 5abc 2fd1 f73c 7ed6 81bd
000002b0: 76e8 1b3d 405c e3bc a0a3 afbc b3c5 e3bd
000002c0: 77a3 9b3d 5812 e4bd 1466 f1bc fd0e 383d
000002d0: 54f2 dbbd 8785 0bbc 98e2 cc3d 5f46 003d
000002e0: 864a af3d 582e e4bd 63e6 353d 38da 803b
000002f0: 23e5 8c3c c28a 02bd f0bf 2dbd b13f 703d
00000300: 3dac 8d3d f57c adbd 0c37 d23d 73f2 ca3d
00000310: 99e6 3bbd 223f 843c a5bb 833d 5a81 e1bd
00000320: f623 bb3c 3baa ab3d f9f8 38bd eba3 d5bd
00000330: 71a2 99bd f5e1 403d a2c4 d2bc aa51 96bc
00000340: dc4b 773c ed12 333d 271f 343d d162 32bc
00000350: f82c ebbd 8696 a03d 2d6c a73d 9aa6 0ebc
00000360: 87bd 9cbd ab68 e2bc 2b8d 643d 2d10 b53d
00000370: 9cbe e7bd 7400 633c c4eb 323c 47c0 e03c
00000380: 106a dcbc a9ef 43bc 43c0 e7bd 5fbc 35bc
00000390: 5862 b3bd 4bc7 db3d b744 403d 20b3 1b3d
000003a0: 105c 6abd 7125 23bd f130 ac3c 1d9e 86bb
000003b0: f1d6 973b ca39 423c 2b58 89bb b629 b8bd
000003c0: faa1 023e 3873 b8bc 319f 703c 4114 8fbd
000003d0: f03f cd3d 3455 d4bc c9a0 9a3d d45d 583d
000003e0: 7f60 bdbc 1dc3 f33c aa28 e5bd fc35 05be
000003f0: de11 113d 2c33 6a3d e949 e3bd 668d 7dbd

conv1.bias f4 [16]
0.053413898 0.15016581 -0.08290524 -0.053103108 0.059392147 0.17006382 0.14399485 0.03169762
-0.067020856 0.06791679 0.24644518 -0.12283299 0.123789325 0.08598511 -0.087209865 0.14424448
00000000: 88c8 5a3d 11c5 193e 39ca a9bd a582 59bd
00000010: 2e45 733d 3625 2e3e 6373 133e 5dd5 013d
00000020: 3b42 89bd f517 8b3d 205c 7c3e dd8f fbbd
00000030: 4285 fd3d f618 b03d 169b b2bd d3b4 133e

conv2.weight f4 [32, 16, 5, 5]
0.017467048 0.044804204 -0.05131724 0.021606676 0.047630753 -0.0147464955 0.0162851 -0.046432473
0.011122147 -0.036001414 -0.05133022 0.0276452 0.036226694 0.034015913 0.03942711 -0.010177579
-0.030240923 0.03451687 0.04149244 -0.040919647 -0.03620717 -0.031814627 -0.035316654 0.029100541
-0.049958006 0.013290842 0.0031172328 -0.04021018 -0.048960622 0.030216787 -0.035922777 -0.037116487
0.0020788193 -0.05143248 -0.008385548 -0.016376326 -0.023937106 -0.055275284 -0.041396376 0.03010632
-0.039006684 0.016856363 0.03151822 -0.006409308 0.019205168 -0.039910983 -0.043493968 0.030544592
0.02169439 9.793034e-05 -0.028630167 -0.016163189 0.046089396 0.051595856 -0.037616514 0.023594325
-0.02796459 -0.0061409133 -0.00039088947 -0.036998495 0.00020994701 -0.010937359 0.047905046 -0.01803193
-0.03591258 0.01016225 0.054688238 0.049375538 0.024691598 -0.045773927 0.033276252 -0.007341024
-0.03765598 -0.017399402 -0.04610633 -0.013674236 0.027392084 0.049500905 -0.037710227 0.022842977
0.020335397 -0.023772286 -0.005776204 -0.031337194 -0.030774765 0.04922767 0.05414586 0.026062572
-0.0045518237 -0.017169865 0.019097626 -0.038988154 -0.024476234 0.030500248 0.036962695 0.0028099848
-0.019843493 0.026566474 0.03509977 -0.04649222 0.01270964 -0.024295293 0.0186287 0.061364405
-0.027033566 -0.011304222 0.019051963 0.04726503 0.07801086 0.044234507 0.057179708 0.0706004
0.05825492 -0.0063756485 -0.012370501 0.057605874 0.009237332 -0.027201599 0.028251741 -0.02431082
0.036569558 0.06947903 0.061211377 0.018205937 0.02167178 0.016098179 -0.011714444 -0.023313358
0.056006476 -0.039830085 0.012647411 -0.015825968 0.024430634 -0.020466013 0.029199611 -0.029099679
-0.02059151 0.04577927 0.011222156 0.049239792 -0.027594551 0.041974537 0.013033321 0.045653176
-0.008331101 0.0051077744 0.010096463 -0.0262543 0.011194381 -0.025651379 0.02423638 0.04108974
-0.01636609 -0.0121446615 0.012882939 -0.0030038664 -0.006454302 -0.018718584 0.03219438 -0.015104025
0.04059083 0.024459662 0.032026146 0.0036538094 -0.021285003 -0.03277273 0.043219164 -0.037207473
-0.0020516773 -0.04423013 -0.051772114 0.00017516634 -0.028444711 -0.040487606 -0.033267807 0.059869684
0.0111058485 0.01910695 -0.024021719 -0.007824108 0.043335244 0.047663055 0.008230874 -0.035533156
0.05649533 -0.027406063 -0.013801957 0.05379779 0.03284446 0.008131286 0.041742012 0.038093798
0.063644685 0.054561082 0.017877253 0.05783002 -0.038825795 -0.025979908 -0.028484825 -0.005464712
0.053722925 0.014043967 -0.0007874766 -0.0013747094 -0.014963746 -0.010693426 0.04913767 -0.026992315
0.016105331 0.005361021 0.05355944 -0.01886633 -0.0059246086 -0.023723193 -0.0027560492 -0.02709939
-0.023973068 0.004034449 0.01127371 0.026929425 0.01950034 -0.025611468 -0.045623668 -0.043572832
0.00056671735 0.023537023 0.05957999 0.06404728 0.06626871 0.05615434 0.060236108 0.017572451
0.040279232 0.012889219 -0.02752758 0.034684367 0.06609722 -0.0045122886 0.057468314 -0.016035495
-0.013554618 0.057016294 -0.022188295 0.032990694 0.036602184 0.056485005 0.0010301126 -0.02697119
0.06388333 0.005371062 0.018514432 -0.0062811626 -0.03698523 -0.0542868 0.03778385 -0.05480166
00000000: 0e17 8f3c 9d84 373d 0732 52bd 7c00 b13c
00000010: 7718 433d 499b 71bc 5468 853c fa2f 3ebd
00000020: aa39 363c 3876 13bd a33f 52bd 3078 e23c
00000030: 7162 143d 4554 0b3d 527e 213d dcbf 26bc
00000040: d0bb f7bc 9061 0d3d faf3 293d 5c9b 27bd
00000050: f84d 14bd 0e50 02bd 32a8 10bd 4264 ee3c
00000060: c4a0 4cbd d5c1 593c 7d4a 4c3b 6eb3 24bd
00000070: ef8a 48bd 3289 f73c c323 13bd 7507 18bd
00000080: cd3c 083b ddaa 52bd 8a63 09bc a527 86bc
00000090: c017 c4bc 5668 62bd 3f8f 29bd 87a1 f63c
000000a0: 79c5 1fbd 5b16 8a3c 4019 013d 2c05 d2bb
000000b0: 2854 9d3c b379 23bd bb26 32bd a738 fa3c
000000c0: 6fb8 b13c f35f cd38 d089 eabc aa68 84bc
000000d0: 3cc8 3c3d 2d56 533d c613 1abd e348 c13c
000000e0: ff15 e5bc b739 c9bb 4cf0 ccb9 bc8b 17bd
000000f0: 3925 5c39 9c32 33bc 1538 443d b3b7 93bc
00000100: 1219 13bd 917f 263c c600 603d 013e 4a3d
00000110: 0946 ca3c 717d 3bbd ae4c 083d f98c f0bb
00000120: 283d 1abd 3189 8ebc fed9 3cbd e709 60bc
00000130: 5d65 e03c 76c1 4a3d 0a76 1abd 3221 bb3c
00000140: 6b96 a63c 19be c2bc 5046 bdbb 6e5b 00bd
00000150: 5c1b fcbc f4a2 493d 0dc8 5d3d 2d81 d53c
00000160: 7727 95bb d1a7 8cbc a072 9c3c 0bb2 1fbd
00000170: 6282 c8bc a8db f93c 3266 173d b927 383b
00000180: d28e a2bc efa1 d93c c7c4 0f3d a06e 3ebd
00000190: 183c 503c ec06 c7bc 379b 983c 3e59 7b3d
000001a0: 7f75 ddbc 5835 39bc dd12 9c3c fa98 413d
000001b0: 28c4 9f3d 3e2f 353d 4535 6a3d f196 903d
000001c0: b69c 6e3d d1ea d0bb a4ad 4abc 23f4 6b3d
000001d0: 2e58 173c e3d5 debc 3270 e73c 7c27 c7bc
000001e0: f6c9 153d 064b 8e3d c8b8 7a3d 9e24 953c
000001f0: 0489 b13c 54e0 833c f0ed 3fbc a8fb bebc
00000200: 0c67 653d df24 23bd 1637 4f3c 76a5 81bc
00000210: c122 c83c 57a8 a7bc 0634 ef3c 7362 eebc
00000220: 87af a8bc 0b83 3b3d 22dd 373c aaaf 493d
00000230: f80d e2bc 7eed 2b3d b689 553c d3fe 3a3d
00000240: 2c7f 08bc 1e5f a73b a36b 253c 4213 d7bc
00000250: a368 373c d722 d2bc 5f8b c63c b74d 283d
00000260: 2e12 86bc 67fa 46bc f612 533c 84dc 44bb
00000270: 9c7e d3bb b757 99bc 41de 033d df76 77bc
00000280: 9242 263d a15f c83c d92d 033d c074 6f3b
00000290: e35d aebc b33c 06bd 9406 313d dd66 18bd
000002a0: 6f75 06bb a72a 35bd ff0e 54bd dbac 3739
000002b0: e204 e9bc 55d6 25bd d343 08bd ea39 753d
000002c0: 4ef5 353c 2e86 9c3c 32c9 c4bc b030 00bc
000002d0: 4c80 313d 563a 433d cada 063c 378b 11bd
000002e0: a667 673d ae82 e0bc 9a21 62bc 125b 5c3d
000002f0: ea87 063d 1639 053c acf9 2a3d 3e08 1c3d
00000300: 2558 823d 717b 5f3d 5173 923c 2cdf 6c3d
00000310: cc07 1fbd d1d3 d4bc 0259 e9bc 5411 b3bb
00000320: 920c 5c3d ab18 663c a96e 4eba 982f b4ba
00000330: 802a 75bc 7b33 2fbc 9544 493d fd1e ddbc
00000340: 54ef 833c 81ab af3b 2561 5b3d 908d 9abc
00000350: 3823 c2bb 2457 c2bc d59e 34bb 8aff ddbc
00000360: 2b63 c4bc 6933 843b 5eb5 383c 199b dc3c
00000370: 2dbf 9f3c 24cf d1bc e2df 3abd 6d79 32bd
00000380: c28f 143a b7d0 c03c 260a 743d 382b 833d
00000390: e4b7 873d 1802 663d 23ba 763d 1af4 8f3c
000003a0: d6fb 243d 4e2d 533c 8581 e1bc 3211 0e3d
000003b0: fb5d 873d d2db 93bb e563 6b3d df5c 83bc
000003c0: 3014 5ebc eb89 693d 3ac4 b5bc 4021 073d
000003d0: 2cec 153d d25c 673d d804 873a aff2 dcbc
000003e0: 43d5 823d bcff af3b 94ab 973c 36d2 cdbb
000003f0: d37d 17bd d65b 5ebd 3dc3 1a3d b577 60bd

conv2.bias f4 [32]
0.014121556 -0.033442874 0.009486608 -0.0071805096 0.028333848 -0.016831588 -0.025964048 0.039081078
-0.016910516 -0.023073947 0.037197568 0.039859697 0.0060698097 0.04325104 0.0084260255 -0.03151881
-0.01738436 0.029396443 0.03433669 -0.01998548 -0.0013771466 0.049272425 -0.002163641 0.0070531545
-0.025870174 0.013780957 -0.0021941045 0.044773016 -0.07938079 -0.030230943 -0.013238954 -0.042765558
00000000: 195e 673c 65fb 08bd b86d 1b3c 7b4a ebbb
00000010: 631c e83c 66e2 89bc 8eb2 d4bc 7b13 203d
00000020: ec87 8abc 9305 bdbc 7a5c 183d ec43 233d
00000030: 41e5 c63b 0128 313d 500d 0a3c de19 01bd
00000040: a569 8ebc cfd0 f03c a1a4 0c3d 97b8 a3bc
00000050: 5f81 b4ba e2d1 493d dfcb 0dbb 261e e73b
00000060: b0ed d3bc 86c9 613c f7ca 0fbb e963 373d
00000070: 6592 a2bd e2a6 f7bc 33e8 58bc f02a 2fbd

conv3.weight f4 [64, 32, 3, 3]
-0.024948265 0.0127939675 0.06462842 0.009063939 0.010709121 0.050563022 -0.004429558 0.06779582
0.0036778532 -0.013007208 -0.034680333 -0.03731052 -0.0328219 -0.010248551 0.001233965 0.033300195
0.027614381 0.02772845 0.017642682 0.03957219 -0.036058348 -0.016314318 -0.004938472 0.027894862
0.007116733 0.046386655 0.03446058 0.06248751 0.01744549 -0.045044445 0.039236438 -0.03173234
0.017724274 0.060700465 0.012489966 -0.007964031 0.057970963 -0.012450717 0.03726417 0.05898005
0.027846498 0.039889194 -0.05179583 -0.010302835 -1.3322369e-05 0.059502646 0.015261563 -0.03709594
-0.0111332415 -0.0011914588 0.020089095 -0.049078792 0.0538713 -0.04954209 -0.044624794 0.047232997
0.016832234 0.006547541 -0.041002873 0.06421087 0.022846727 -8.585529e-06 -0.008249633 0.010583121
0.037068814 -0.04348071 -0.016426273 0.0027470074 0.052060906 -0.0048690005 0.042338073 0.056401897
0.036874697 -0.033859495 -0.02142021 0.0062145893 -0.008990196 0.05694163 0.030049846 0.0044717817
0.048503403 0.07266801 -0.012721578 0.047437843 0.002215376 0.07380075 0.02211751 0.028140154
-0.04078998 0.049241576 0.013807128 0.0028719958 0.016291011 0.038508303 -0.022227151 0.05813361
0.014800993 0.018017696 0.055874888 -0.00082131836 0.0009585525 0.055588905 -0.011070394 0.020507606
0.059896804 0.041836634 0.06411087 0.034189656 0.054921757 0.042592403 0.064503595 -0.016612003
-0.031435195 0.016916504 0.030329272 -0.03787756 -0.013509379 0.03814295 -0.0036152885 -0.007787281
0.041271377 0.00023716866 -0.006213048 -0.026993142 0.007949643 -0.009931381 -0.025945513 -0.01704892
-0.025689846 -0.010024348 0.04751921 -0.015024661 -0.03098804 -0.026523665 -0.030000646 -0.016080532
-0.042959582 0.053880695 -0.02663881 0.04180454 0.054500476 0.033714052 0.03471588 0.038561467
-0.037588898 -0.050763015 -0.049007885 0.016436204 0.023883143 0.01618816 -0.042696234 -0.012027338
-0.0033795116 0.05520798 0.023618668 -0.013582622 -0.035218984 -0.05313704 -0.005488744 0.034423985
-0.0152969025 0.013194397 0.011856842 -0.014900287 0.044219654 0.04923958 0.07008875 -0.02493202
-0.0010590933 0.06062201 0.014771938 0.046435263 0.026658226 0.018713016 -0.0428483 0.05468879
-0.019845432 -0.053936798 -0.040265553 0.013354463 0.06585571 0.048993707 -0.004575132 0.02223587
-0.008264779 -0.00022419219 0.0033505599 0.0641032 -0.035063148 -0.0056086504 0.010520878 -0.011043124
-0.0027054702 -0.014901033 0.02924934 -0.044976152 0.012414055 0.025127161 0.049553834 0.02043688
0.012010892 -0.012982918 -0.050248276 -0.020596895 0.012768952 0.014456291 -0.043080658 0.005283303
0.0069572325 0.032957107 0.04262653 0.007337809 -0.0064983107 0.04205777 0.036311164 -0.040161017
0.051862128 -0.0011979495 0.056717046 0.04250449 -0.039331216 0.050544705 -0.05330973 0.04603381
-0.03406219 0.008464499 0.039372113 0.05175452 0.0259853 8.618634e-06 -0.03797067 0.06587079
0.049317986 -0.034659173 -0.011220626 -0.03988484 0.038660925 -0.042814963 -0.037757806 -0.016443785
0.04056669 -0.04665996 0.028935594 -0.049990784 0.010680791 0.014709173 -0.034293674 0.007049531
0.056753717 -0.040927842 -0.018412126 -0.0020703126 -0.03907055 0.026665589 -0.038750824 0.039393816
00000000: 4e60 ccbc ca9d 513c e85b 843d ea80 143c
00000010: 4f75 2f3c 2c1b 4f3d d325 91bb 89d8 8a3d
00000020: 2308 713b 2f1c 55bc f70c 0ebd ead2 18bd
00000030: 4270 06bd 8ae9 27bc ffbc a13a c965 083d
00000040: 8e37 e23c c626 e33c 6387 903c 7316 223d
00000050: ebb1 13bd 9ba5 85bc e8d2 a1bb c483 e43c
00000060: 7c33 e93b efff 3d3d 8a26 0d3d e7f2 7f3d
00000070: d8e9 8e3c 8680 38bd 63b6 203d c5f9 01bd
00000080: 7f32 913c 0da1 783d b7a2 4c3c 917b 02bc
00000090: f672 6d3d 18fe 4bbc 50a2 183d 1195 713d
000000a0: 571e e43c da62 233d dd27 54bd 39cd 28bc
000000b0: 2483 5fb7 0cb9 733d a20b 7a3c eaf1 17bd
000000c0: 3368 36bc b92a 9cba e391 a43c d806 49bd
000000d0: 27a8 5c3d a6ec 4abd 7dc8 36bd 6377 413d
000000e0: c1e3 893c c18c d63b a1f2 27bd fd80 833d
000000f0: 0f29 bb3c 910a 10b7 7829 07bc d464 2d3c
00000100: 78d5 173d d418 32bd 6490 86bc 2307 343b
00000110: d13d 553d 238c 9fbb b06a 2d3d ad05 673d
00000120: ec09 173d 41b0 0abd 7079 afbc c1a3 cb3b
00000130: 9d4b 13bc a03b 693d 182b f63c 0688 923b
00000140: 81ab 463d f7d2 943d 2a6e 50bc 2f4e 423d
00000150: d72f 113b d924 973d c82f b53c 2e86 e63c
00000160: 6513 27bd 89b1 493d 4b37 623c 1838 3c3b
00000170: ba74 853c e2ba 1d3d b715 b6bc 821d 6e3d
00000180: dd7f 723c d999 933c 11dd 643d be4d 57ba
00000190: 5f47 7b3a 31b1 633d 9960 35bc 91ff a73c
000001a0: 5a56 753d e45c 2b3d 8f4c 833d 740a 0c3d
000001b0: a3f5 603d 5f75 2e3d 761a 843d e515 88bc
000001c0: 31c2 00bd 7b94 8a3c 1875 f83c 8025 1bbd
000001d0: 7156 5dbc c83b 1c3d 7aee 6cbb 732c ffbb
000001e0: 2d0c 293d 7ab0 7839 d396 cbbb b920 ddbc
000001f0: 383f 023c 3bb7 22bc af8b d4bc 2daa 8bbc
00000200: 8373 d2bc 2a3d 24bc 81a3 423d ff29 76bc
00000210: a1da fdbc 2848 d9bc eac3 f5bc 52bb 83bc
00000220: 63f6 2fbd 01b2 5c3d a239 dabc 3d3b 2b3d
00000230: e43b 5f3d bf17 0a3d 3d32 0e3d a1f2 1d3d
00000240: d1f6 19bd e1ec 4fbd 7ebc 48bd 38a5 863c
00000250: 95a6 c33c 089d 843c 3fe2 2ebd 500e 45bc
00000260: cc7a 5dbb c321 623d f07b c13c a589 5ebc
00000270: c841 10bd 3aa6 59bd ecda b3bb 2a00 0d3d
00000280: dc9f 7abc 502d 583c 3343 423c 5520 74bc
00000290: ab1f 353d 71af 493d b18a 8f3d 3c3e ccbc
000002a0: 46d1 8aba c94e 783d 0006 723c e732 3e3d
000002b0: 5a62 da3c 0a4c 993c b381 2fbd 5a01 603d
000002c0: e392 a2bc d5ec 5cbd 7eed 24bd adcc 5a3c
000002d0: 5cdf 863d a0ad 483d fdea 95bb 0028 b63c
000002e0: ff68 07bc 2215 6bb9 1195 5b3b 8a48 833d
000002f0: 609e 0fbd c5c8 b7bb c35f 2c3c 38ee 34bc
00000300: 424e 31bb 7623 74bc 509c ef3c ea38 38bd
00000310: 5264 4b3c 7ad7 cd3c f6f8 4a3d 3e6b a73c
00000320: 55c9 443c 4eb6 54bc 23d1 4dbd d2ba a8bc
00000330: de34 513c 14da 6c3c 5875 30bd 8f1f ad3b
00000340: 7ff9 e33b 08fe 063d 2899 2e3d 0172 f03b
00000350: c8ef d4bb c544 2c3d 04bb 143d e17f 24bd
00000360: 626d 543d 8404 9dba 2250 683d 3019 2e3d
00000370: c519 21bd f707 4f3d 4e5b 5abd f38d 3c3d
00000380: cc84 0bbd afae 0a3c a744 213d 8cfc 533d
00000390: 20df d43c c098 1037 2287 1bbd 44e7 863d
000003a0: a801 4a3d c7f6 0dbd b7d6 37bc 495e 23bd
000003b0: eb5a 1e3d be5e 2fbd eea7 1abd 1eb5 86bc
000003c0: 4229 263d 841e 3fbd 570a ed3c 23c3 4cbd
000003d0: 7cfe 2e3c befe 703c 8677 0cbd c1ff e63b
000003e0: 9676 683d f4a3 27bd 07d5 96bc 15ae 07bb
000003f0: 7108 20bd cb71 da3c 2fb9 1ebd 695b 213d

conv3.bias f4 [64]
-0.011811523 0.020778438 0.05026644 0.084194526 0.025865491 0.029872894 -0.020789659 -0.020081783
0.028808719 0.03525686 -0.053609543 0.019913789 -0.03342154 -0.056670487 0.05668137 -0.018948285
0.018924853 -0.03176498 0.059796803 0.010315381 -0.0389405 0.015211826 -0.019638889 -0.002146254
0.00094024837 0.010299412 -0.019171739 -0.03257607 -0.0149325095 0.03272206 0.041305255 0.012076677
0.09708943 0.021688433 -0.0015933351 -0.043453947 -0.06423352 -0.037383433 -0.04244738 -0.024366055
0.033522144 0.020021146 -0.023390539 0.05283944 0.02767973 -0.00962659 0.09024708 0.018683786
-0.034819607 0.058974482 0.07699044 0.029330634 -0.06387092 0.019632064 -0.047977205 -0.011710613
0.0377499 0.070182994 -0.009106531 0.04791575 -0.009238905 -0.024711732 -0.033747226 0.027647002
00000000: 1e85 41bc 8b37 aa3c 2fe4 4d3d 2e6e ac3d
00000010: dee3 d33c 00b8 f43c 134f aabc 8d82 a4bc
00000020: 4300 ec3c 7f69 103d ae95 5bbd 3e22 a33c
00000030: 06e5 08bd 501f 68bd b92a 683d 6f39 9bbc
00000040: 4b08 9b3c ff1b 02bd 7eed 743d d801 293c
00000050: 1380 1fbd 063b 793c bce1 a0bc 2ba8 0cbb
00000060: 007b 763a ddbe 283c 0d0e 9dbc 7c6e 05bd
00000070: 7ca7 74bc 9107 063d b32f 293d 41dd 453c
00000080: d3d6 c63d f1ab b13c 74d7 d0ba c4fc 31bd
00000090: dd8c 83bd 5f1f 19bd 4edd 2dbd 529b c7bc
000000a0: 844e 093d 6303 a43c 849d bfbc 2b6e 583d
000000b0: 9ac0 e23c d8b8 1dbc 76d3 b83d bd0e 993c
000000c0: 019f 0ebd 3a8f 713d 2aad 9d3d cc46 f03c
000000d0: c2ce 82bd 6cd3 a03c bf83 44bd dfdd 3fbc
000000e0: a49f 1a3d 1abc 8f3d 8f33 15bc 4e43 443d
000000f0: c75e 17bc 4270 cabc 883a 0abd f77b e23c

fc.weight f4 [4, 64]
-0.097569965 -0.113618754 0.14627767 0.15415889 0.2499536 -0.1667333 -0.03723071 -0.05846906
0.08912307 -0.2293959 -0.14700527 0.12259285 0.05334916 -0.024353301 0.10320699 -0.047413997
-0.068993725 0.13501965 0.15913472 -0.04954536 -0.114797726 0.0875265 0.14858036 0.07941116
-0.061415296 -0.047935266 0.0040101414 -0.10179406 -0.13441607 -0.17800495 -0.06397621 0.23884468
0.1850118 0.23684274 -0.11305636 -0.027804527 -0.13497038 -0.10868353 0.09320766 -0.052330717
0.029499516 0.06508815 -0.028954403 -0.01945393 -0.10817389 0.053920947 0.24728732 -0.046703964
-0.011877903 0.13181274 0.06165333 0.021548541 -0.11079988 -0.09408281 0.028814541 -0.06547123
0.007881373 -0.052369457 0.17937292 -0.005339581 0.014233657 0.042252447 -0.12232057 0.04186177
0.059434813 0.10134339 -0.16614637 0.14148523 -0.00018189658 0.10811419 -0.1397769 0.12716094
-0.011242502 0.15094247 0.057106063 -0.1902033 -0.20608267 0.11653587 -0.16908269 -0.1762909
-0.21188954 -0.084424034 -0.20025834 -0.050048996 -0.03192546 0.22443926 -0.118397966 -0.09992754
-0.034390647 0.11704846 -0.07257614 -0.1385249 0.07456892 0.22820742 -0.034247804 -0.28844306
-0.15641877 -0.16854031 0.029183274 -0.032790586 -0.0052331937 0.11182759 -0.06297904 -0.11512759
0.056255553 -0.12410137 -0.075345375 0.23183055 0.0869965 -0.102644466 -0.22127727 -0.09620042
0.048658974 -0.06100599 0.023928005 -0.12077631 0.03602456 0.07869335 0.19044831 0.13037394
-0.026026512 0.14783192 -0.12016397 0.30514002 0.025601193 -0.013430324 -0.03403699 -0.077155806
0.0943505 0.048207972 0.10434162 0.034554858 -0.18311733 0.04450611 0.093666576 0.022220805
0.15000492 0.07366726 0.005319185 0.09512384 -0.006292588 0.08625468 -0.097372144 -0.12853189
0.056367747 0.0064037303 0.0811504 -0.07775824 -0.10678845 -0.1307034 -0.12687646 0.022199335
-0.04419796 -0.015111864 0.04196084 -0.030452313 0.04525383 0.10704543 0.05195767 0.17735179
-0.09830042 0.18040141 -0.10324063 0.038336635 0.04792505 0.11589025 0.07719519 -0.060131054
0.0113742845 -0.11206379 -0.081776045 0.07345905 0.061154217 -0.030050779 -0.20997201 0.018375555
-0.078055926 -0.028290734 -0.15010318 0.13805081 0.051002763 0.051794745 0.08799312 0.013091141
0.0639703 -0.13419329 0.10535229 -0.21995534 0.06255595 0.14381626 0.09051649 0.040310312
-0.15127665 0.008029878 0.035033323 -0.19983432 -0.09548484 0.2796747 0.008050427 0.012709034
-0.02624985 0.06653342 -0.023748213 -0.06708274 0.017717544 0.014292038 0.05112219 0.26274064
0.11214801 -0.056750562 0.045672286 -0.019214451 0.14697276 -0.14066148 -0.092292145 -0.13401689
0.054372553 -0.1103662 0.11564419 0.2165181 -0.041399695 0.012984336 0.10437536 -0.21556738
0.124616474 -0.18783021 0.08413538 0.14464271 0.07593521 -0.021725744 0.014539067 -0.08568173
0.046836093 -0.13848555 -0.0572191 -0.14448312 0.04641166 0.026504945 -0.024034422 -0.039250247
0.06396627 0.10642099 0.10326147 -0.13564667 -0.075280614 0.18120624 -0.13424458 -0.08725372
0.11773509 0.13375424 -0.10806273 0.10921995 0.011453936 -0.06276887 0.002221452 0.00813309
00000000: c3d2 c7bd f3b0 e8bd d0c9 153e d4db 1d3e
00000010: d6f3 7f3e 22bc 2abe 3b7f 18bd 417d 6fbd
00000020: 2886 b63d c2e6 6abe 8d88 16be f611 fb3d
00000030: a684 5a3d 9380 c7bc 305e d33d 2e35 42bd
00000040: 954c 8dbd 9742 0a3e 36f4 223e 13f0 4abd
00000050: 121b ebbd 1841 b33d 7325 183e 51a2 a23d
00000060: 9b8e 7bbd c557 44bd 8167 833b 6779 d0bd
00000070: 5ea4 09be ee46 36be f605 83bd b393 743e
00000080: bc73 3d3e e786 723e 188a e7bd 52c6 e3bc
00000090: ad35 0abe 7895 debd a8e3 be3d bc58 56bd
000000a0: f8a8 f13c f04c 853d c931 edbc d95d 9fbc
000000b0: 468a ddbd 36dc 5c3d e338 7d3e a84c 3fbd
000000c0: 899b 42bc ebf9 063e 3488 7c3d 9186 b03c
000000d0: 0ceb e2bd 7dae c0bd 790c ec3c c815 86bd
000000e0: e020 013c 5b81 56bd 89ad 373e a7f7 aebb
000000f0: 4934 693c e710 2d3d 3583 fabd 3f77 2b3d
00000100: eb71 733d 208d cf3d 4622 2abe 81e1 103e
00000110: 7ebb 3eb9 f96a dd3d ad21 0fbe 7a36 023e
00000120: 7932 38bc aa90 1a3e 0ce8 693d a7c4 42be
00000130: 5607 53be 5caa ee3d 0324 2dbe 9a85 34be
00000140: 92f9 58be 82e6 acbd 8610 4dbe 2d00 4dbd
00000150: 45c4 02bd 68d3 653e a27a f2bd cfa6 ccbd
00000160: 35dd 0cbd 1ab7 ef3d cda2 94bd 79d9 0dbe
00000170: 97b7 983d 35af 693e 6d47 0cbd cfae 93be
00000180: 3e2c 20be d595 2cbe c311 ef3c 6c4f 06bd
00000190: 367b abbb dd05 e53d 28fb 80bd 04c8 ebbd
000001a0: 396c 663d dc28 febd ad4e 9abd fd64 6d3e
000001b0: 392b b23d 4337 d2bd 8296 62be ba04 c5bd
000001c0: a24e 473d 6be1 79bd aa04 c43c 9259 f7bd
000001d0: 7d8e 133d fb29 a13d e204 433e bf80 053e
000001e0: 8d35 d5bc 4061 173e 8718 f6bd 503b 9c3e
000001f0: 98b9 d13c dd0a 5cbc 5f6a 0bbd dd03 9ebd
00000200: d63a c13d b975 453d 0fb1 d53d 6589 0d3d
00000210: 1c83 3bbe 0a4c 363d 43d4 bf3d 6808 b63c
00000220: e49a 193e dcde 963d 8f4c ae3b 4ad0 c23d
00000230: 0e32 cebb 4ba6 b03d 0c6b c7bd dd9d 03be
00000240: dee1 663d 62d6 d13b 2e32 a63d b63f 9fbd
00000250: e7b3 dabd 1dd7 05be e7eb 01be 61db b53c
00000260: ec08 35bd c097 77bc 21df 2b3d 2177 f9bc
00000270: 145c 393d a23a db3d 91d1 543d b59b 353e
00000280: bb51 c9bd 26bb 383e d36f d3bd e006 1d3d
00000290: 0f4d 443d de57 ed3d 8318 9e3d fb4b 76bd
000002a0: 355b 3a3c b381 e5bd 337a a7bd b371 963d
000002b0: d87c 7a3d 0d2d f6bc e702 57be 5588 963c
000002c0: c9db 9fbd f8c1 e7bc a6b4 19be 315d 0d3e
000002d0: 46e8 503d ba26 543d bd35 b43d 3a7c 563c
000002e0: dc02 833d f769 09be f1c2 d73d f93b 61be
000002f0: 551d 803d 9244 133e b660 b93d 6d1c 253d
00000300: 44e8 1abe c08f 033c 1a7f 0f3d 5ea1 4cbe
00000310: 8e8d c3bd 8631 8f3e f0e5 033c 8d39 503c
00000320: ed09 d7bc ac42 883d 9d8b c2bc ad62 89bd
00000330: 6224 913c 2729 6a3c 8065 513d f185 863e
00000340: dbad e53d 4773 68bd dd12 3b3d a067 9dbc
00000350: 0780 163e 9009 10be aa03 bdbd b93b 09be
00000360: c1b5 5e3d ad07 e2bd dcd6 ec3d ecb6 5d3e
00000370: ba92 29bd 41bc 543c c0c2 d53d b2bd 5cbe
00000380: ec36 ff3d 9056 40be 2c4f ac3d 381d 143e
00000390: eb83 9b3d 30fa b1bc 4435 6e3c e779 afbd
000003a0: 34d7 3f3d 28cf 0dbe 935e 6abd 62f3 13be
000003b0: 271a 3e3d e620 d93c d6e3 c4bc dec4 20bd
000003c0: bf00 833d 3ff3 d93d c07a d33d f6e6 0abe
000003d0: b92c 9abd 218e 393e 6977 09be 14b2 b2bd
000003e0: 181f f13d dff6 083e fe4f ddbd b6ae df3d
000003f0: 4aa9 3b3c f78c 80bd c895 113b a740 053c

fc.bias f4 [4]
0.09169612 -0.0071720015 -0.2946158 -0.094371215
00000000: 2dcb bb3d 1c03 ebbb e2d7 96be b245 c1bd
